model/model.pth (torch, 16799 bytes, 4 tensors)

linear1.weight f4 [256, 11]
000000 47 fc 84 3d 72 b5 d8 3d be e5 c2 3c fc fb 8e 3e
       0.064934306 0.10581483 0.02379119 0.27926624
000010 b7 41 44 3d b4 56 43 3d 65 25 92 3c 41 24 9c 3e
       0.047914233 0.04769011 0.017840097 0.3049641
000020 88 bf 98 3e b7 fc 72 bc ea 6b 00 3e 16 bb a4 3e
       0.29833627 -0.01483076 0.12541166 0.32173985
000030 04 32 a3 3d b6 90 82 3e ad bf 5c 3e 2a b2 fd 3d
       0.07968524 0.2550103 0.21557494 0.12387498
000040 dc fe 0f 3e 1a dd 1b 3e 83 cb a2 3e 9c fb ec 3d
       0.14062065 0.15221062 0.31795892 0.11571428
000050 4d ed 81 be a9 3e 30 be 01 77 92 be 72 f5 6d 3e
       -0.2537636 -0.17211403 -0.28606418 0.23238161
000060 2d ec 55 be c1 05 38 3e f5 74 0f be 2f 73 88 be
       -0.20890875 0.17970945 -0.1400946 -0.26650378
000070 65 4f 02 be 55 a9 38 be f2 35 32 bd d9 00 0e be
       -0.12725599 -0.18033345 -0.043508478 -0.13867511
000080 58 00 7a be ef bc 52 be 74 f0 94 be fd 28 91 be
       -0.24414194 -0.20579885 -0.290897 -0.28351584
000090 07 cb 08 3d 22 9b 95 3e e7 9f a6 3e 95 0a cb bc
       0.033396747 0.2921992 0.3254387 -0.02478532
0000a0 c8 65 99 bd e9 38 cf 3c 9a 6e 68 3e d3 fe f3 bd
       -0.07490116 0.025295692 0.22698441 -0.11913838
0000b0 81 cc 1c bd 7f 64 2a 3e 16 f1 2b be e7 de 41 3e
       -0.038280968 0.16639899 -0.16791186 0.18932687
0000c0 82 ae 98 be c5 33 82 be 93 7a 06 3e 64 0a 6a be
       -0.2982064 -0.25430122 0.13132696 -0.22855526
0000d0 2e 45 e4 bd 78 70 6c 3e 82 d7 1e 3e f8 17 79 3e
       -0.111460075 0.23089778 0.15511897 0.2432555
0000e0 bb 75 64 be 72 78 e8 bd 35 89 3b 3e 01 67 92 be
       -0.22310536 -0.11351098 0.18314059 -0.2859421
0000f0 3c 97 2b 3e 66 fb 53 3e 65 0f 70 3e 76 a2 78 be
       0.1675691 0.2070137 0.23443373 -0.24280724
000100 44 b2 ab 3d e7 da e2 bc f6 66 81 3e a8 c9 99 be
       0.08383611 -0.027692271 0.25273865 -0.30036664
000110 4b 18 04 be cb dc 06 3d 9c 3b ae bd 39 40 76 3e
       -0.12899892 0.03292541 -0.08507463 0.24047936
000120 74 6f 46 bd 7b 4b 0c 3e 6f 2a e5 3c 05 af b4 bd
       -0.048446134 0.13700669 0.027974335 -0.08822445
000130 f5 f9 88 be 6e b7 cf bd 7c e2 f4 bd 15 35 0e be
       -0.26753202 -0.10142408 -0.11957261 -0.13887437
000140 42 ca 5e bd 2e 87 95 be c0 cd 4b be d8 15 98 3e
       -0.054392107 -0.29204696 -0.19902706 0.29704165
000150 df 28 18 3d 71 93 23 be 6e 55 3b be 7b b5 ec bd
       0.037148353 -0.15974213 -0.18294308 -0.11558052
000160 dd b7 29 3e 64 e1 61 bd 38 78 90 3e 93 92 37 3e
       0.16574045 -0.05514659 0.2821672 0.17927007
000170 ab 9e 16 3d 13 38 45 bc 2e 31 93 3e 1d 13 62 3d
       0.03677241 -0.012037295 0.2874846 0.05519401
000180 79 08 06 be ac 0c 8d 3d 19 ce 87 bd df fa ec bc
       -0.1308917 0.068871826 -0.06631107 -0.028928218
000190 e5 4b 9d 3c af b6 f8 3d cc 2f f7 3d 0c 35 18 be
       0.019201228 0.12144219 0.120696634 -0.14863986
0001a0 58 ae 84 3d 7c 0e 8e 3e d6 b0 95 3e 6f 08 37 3d
       0.06478566 0.27745426 0.29236478 0.044685777
0001b0 f7 4b 2b be 1c ec 81 3e c5 78 93 bd 31 0d 85 3d
       -0.16728197 0.2537545 -0.07200769 0.06496657
0001c0 6d ee 07 bc 28 83 53 3d 86 b6 3e 3e 1b 0e 5d 3d
       -0.008296591 0.051638752 0.18624315 0.05396853
0001d0 6a 3a e2 bd 5e 5c 4f bc 6b c5 01 3d f6 0b 8c be
       -0.11046298 -0.012656299 0.031682413 -0.27352875
0001e0 5c 9d d4 3d e2 33 19 3e 3f 84 1a be 4d 85 0c 3d
       0.103815764 0.14961198 -0.1508951 0.034306813
0001f0 b3 e9 3b be b3 0c eb bc f6 f5 91 3d 5d f2 06 3e
       -0.18350868 -0.028692579 0.071269915 0.13178392
000200 72 f3 27 3e b8 76 e5 bd e0 bc e3 bd 4a 5d 68 3e
       0.16401461 -0.112042844 -0.111200094 0.22691837
000210 8c 68 23 3e fb 5f 41 bd f7 53 af 3d b9 ff 2a 3e
       0.1595785 -0.047210675 0.08560937 0.16699113
000220 ea 9a 8f be 48 c5 19 be a3 9d 0c 3e a9 32 1b 3d
       -0.28047878 -0.15016663 0.13732009 0.03789011
000230 5b 3c f4 bd 72 d8 30 3e e2 e4 91 bd 91 2f 1f be
       -0.119255744 0.17270067 -0.07123734 -0.15545489
000240 b7 3b 41 be 0d 01 c5 bd 25 60 f4 bd 9b ae 85 be
       -0.18870436 -0.09619341 -0.119324006 -0.26109776
000250 9c e4 c0 3c 15 f9 41 be 54 1e 5e 3e ec ba a3 bd
       0.02354651 -0.18942674 0.21691257 -0.07994637
000260 64 4a 90 be b8 d3 c7 bd e4 f4 eb bd 56 e7 1d be
       -0.28181756 -0.09757179 -0.115213186 -0.15420279
000270 6e 49 8d 3e be 6f 45 3d f5 0d 83 3e 05 05 94 bd
       0.27595085 0.04820227 0.25596586 -0.0722752
000280 d0 49 90 3e cd 07 33 3c 8c 5f c1 bd 08 af 4e bd
       0.28181314 0.010927153 -0.09442052 -0.05045989
000290 7a b6 27 be bf 08 1c be 75 01 95 be 27 1e 9b bd
       -0.16378203 -0.15237711 -0.29102674 -0.075741105
0002a0 26 c9 37 be f9 03 94 3e b3 a2 71 bd b0 dc d4 3d
       -0.17947826 0.2890928 -0.058993053 0.10393655
0002b0 96 68 86 bd 63 ef 1c bb 7e 01 9a 3e ff 58 c8 3d
       -0.06562917 -0.0023946397 0.30079263 0.097826
0002c0 37 ee 86 3c 18 83 23 3e 66 6f ba 3c 01 a7 81 3e
       0.016471012 0.15967977 0.022758197 0.25322726
0002d0 b3 83 33 3e 5c 1e 66 3e 64 c0 23 be b2 3b 4a 3d
       0.17530708 0.22472519 -0.1599136 0.049373336
0002e0 73 d7 5e bd 5f 3f 40 be 9d dd 46 3d 35 cd 0f be
       -0.054404687 -0.18774174 0.04855119 -0.14043124
0002f0 36 fd 0e 3e 9e d0 61 bd d3 1f 42 be 92 b6 41 be
       0.1396378 -0.055130593 -0.18957452 -0.18917301
000300 53 5b b6 bd 02 ea 2d 3e f9 14 28 3d 57 ce f0 3d
       -0.089041375 0.16983798 0.041035626 0.11758106
000310 cb 6f 8a 3e 34 83 95 3d 1d f1 97 3c 2d ad 82 bd
       0.27038416 0.07300416 0.018547589 -0.06380687
000320 53 a7 9a 3e ce c5 9d bd 85 16 69 be e9 f5 c1 3d
       0.30205783 -0.07703744 -0.22762497 0.09470732
000330 58 99 7e be 02 36 cc 3d f1 36 2a 3e f1 84 13 3d
       -0.24863183 0.09971239 0.16622521 0.036015455
000340 0c 9d 81 3e fb 8c 0c be a5 c8 7b 3e b1 ed 41 be
       0.2531513 -0.13725655 0.24588259 -0.18938328
000350 10 fe 8c 3e a5 aa 60 3c 15 95 20 3e 4b 12 94 be
       0.27537584 0.01371256 0.1568187 -0.28920206
000360 08 37 43 be 0e 1c 51 be e6 19 13 be ce 0a 05 3e
       -0.19063962 -0.20420858 -0.14365348 0.12992403
000370 7b 8a 50 bc f4 c3 55 3e 18 e8 7a be 67 4d f6 3c
       -0.012728329 0.20875531 -0.24502599 0.030066205
000380 c7 5f 87 3e 4d a7 96 bd 9a 04 01 bc 17 c4 ca bc
       0.2644026 -0.07356129 -0.007874632 -0.024751706
000390 5a 9b 47 be 2e bb 58 3e 41 b0 0b 3e 00 e5 98 3e
       -0.19492856 0.21165153 0.13641454 0.29862213
0003a0 76 45 b5 3c 01 56 9a 3e 45 c6 92 3d a2 2f bb bd
       0.022127848 0.3014374 0.07166723 -0.091399446
0003b0 0d cf e1 3d 18 b6 7e be 41 b4 42 be 15 de b5 3c
       0.1102582 -0.24874151 -0.19014074 0.022200624
0003c0 b7 a5 9e bd d3 5f 88 be da 52 ca 3d c1 f5 1b bd
       -0.07746451 -0.26635608 0.09879084 -0.038076166
0003d0 6d 94 83 3e f9 4b 91 be 15 9b ac bd 9a 87 b7 3d
       0.25699177 -0.28378275 -0.08428017 0.08961411
0003e0 d2 a4 24 be 94 43 7d 3e 08 e5 42 3e 2b 45 0f 3e
       -0.16078499 0.2473281 0.19032681 0.13991229
0003f0 30 8d c9 bd f6 7f 8e be 63 56 93 3e ba 89 8f 3e
       -0.098413825 -0.27832 0.28776845 0.28034765

linear1.bias f4 [256]
000000 e9 9b f3 3d b9 67 2b be 31 77 6f be 6d 10 87 3e
       0.11894972 -0.16738786 -0.23385312 0.2637972
000010 70 8b 4b bc 8a 85 8e be 81 ed 1f be f4 ff 07 3e
       -0.012423381 -0.27836257 -0.15617944 0.13281232
000020 f0 68 8f 3e 66 bb cf bc 06 f3 2a be d7 fb 3d 3e
       0.28009748 -0.025357913 -0.16694269 0.185531
000030 d6 ea d0 3d ab c4 1b bd 7f ac de bc 92 6b cf 3d
       0.102010414 -0.038029354 -0.027181862 0.10127939
000040 a4 73 83 3e df 12 b4 3c ad 3c 67 3d 90 6c 31 be
       0.25674164 0.021981655 0.05645435 -0.1732657
000050 c9 e5 b6 bd 41 1c 20 3e 04 85 42 bc b3 e1 b4 3d
       -0.08930547 0.15635778 -0.011872534 0.08832111
000060 f4 9c 7c be 4a 80 0f 3e ce 88 88 be 1a a0 34 be
       -0.24669248 0.14013782 -0.26666874 -0.17639199
000070 e1 c5 30 3e d3 10 6d be 7a dc 36 be 05 8e 42 be
       0.17262985 -0.23150949 -0.17857543 -0.18999489
000080 5a 51 c2 bd 5d 4f 8c be e1 6e 6d 3e d5 a0 ae bc
       -0.09488173 -0.274043 0.23186828 -0.021316925
000090 bf 7d 93 be 4b 2a a4 3d d6 55 86 be 1a bb 83 bd
       -0.28806874 0.08015879 -0.26237363 -0.06432171
0000a0 cc d5 e4 3d ba 49 61 3e 99 18 18 bd 16 99 3f 3e
       0.11173591 0.2200078 -0.037132833 0.18710741
0000b0 2f 12 5c 3e 52 ad 55 3e 15 ab 84 be c1 ce 36 3e
       0.21491311 0.20866898 -0.25911775 0.17852308
0000c0 18 69 31 3e 33 7e 42 be 74 c7 2a 3e d6 8e 45 3e
       0.17325246 -0.18993454 0.16677648 0.19292769
0000d0 47 c1 d1 3d cf b9 87 3e fb c2 13 3e 27 00 f7 bd
       0.10241943 0.26508948 0.14429848 -0.12060576
0000e0 14 90 11 3e f3 e2 45 be 6e 65 8b 3e 01 b8 4a be
       0.14215118 -0.19324856 0.27225822 -0.19796754
0000f0 76 0e 50 3e 05 00 8a bd 06 50 29 be fc 06 0a 3d
       0.20318016 -0.06738285 -0.16534433 0.033698067
000100 64 dd 14 3e 9a 21 62 3e 87 5d b7 bd 7a b0 50 be
       0.14537579 0.2208313 -0.08953386 -0.2037982
000110 eb 20 9c be ae 5e 56 be 0f 6c 8f 3e 77 09 a0 3e
       -0.30493864 -0.20934555 0.2801213 0.3125722
000120 ca 34 ce bd 0b 81 6f 3e 70 9f 0d 3e da fa 70 be
       -0.100686625 0.2338907 0.13830352 -0.23533192
000130 5c ce 66 be 60 07 74 3e 9c 7b 83 3e c4 18 a4 3c
       -0.22539657 0.23830938 0.25680244 0.02003134
000140 41 b3 93 3e 8d 1e 7a 3d 3b 9e 05 3e 22 91 8f be
       0.28847697 0.06106429 0.13048641 -0.28040415
000150 bb f8 0b be d7 04 9a 3e ce 9e 76 be ad 91 94 bd
       -0.13669102 0.30081818 -0.24084017 -0.07254348
000160 0a c2 d0 3d 32 c6 ae bd d7 e0 fd bd c7 63 bb 3c
       0.1019326 -0.085338965 -0.123964004 0.022874726
000170 98 04 df bd 14 60 61 bd 9a 10 72 3e 72 5c c2 3d
       -0.10889548 -0.055023268 0.23639145 0.09490289
000180 78 fb 8b bd 62 cb 24 3e 0d 6b 25 3e cb c8 36 be
       -0.06835073 0.1609321 0.16154118 -0.17850034
000190 2b 53 12 3d 3c 63 8c 3e 35 05 aa 3d 9e 42 b6 bd
       0.035723846 0.2741946 0.083017744 -0.08899425
0001a0 1e 18 68 3e 60 e7 af bc d0 94 20 be f0 77 18 3e
       0.2266545 -0.021472633 -0.15681767 0.14889503
0001b0 fa b3 0e 3e aa 8b 5b be 32 1b 94 3d 37 a8 74 3b
       0.13935843 -0.21439996 0.072317496 0.003733171
0001c0 d8 2d 26 be 4e 12 a5 3d 79 1a a2 3e a5 78 27 be
       -0.16228426 0.08060132 0.31660822 -0.16354616
0001d0 e1 36 49 3e 42 14 5e 3c 20 be d6 bd b8 16 54 3d
       0.19649841 0.0135546345 -0.10485482 0.05177948
0001e0 05 06 ad bd 2b 9b 61 3d 11 76 63 3d fb 80 b5 3d
       -0.08448414 0.05507962 0.05553252 0.08862492
0001f0 cf b2 bd 3d 40 27 84 be 1e 57 a0 bd 78 66 f7 3d
       0.09262621 -0.25811195 -0.07829116 0.12080091
000200 80 f9 37 3d 40 54 00 be 02 17 95 3e 5e 76 31 3d
       0.044915676 -0.12532139 0.29119116 0.043325774
000210 ac 2e 87 3e 10 f0 28 3e 18 ad 46 3e 67 13 40 3e
       0.26402795 0.16497827 0.19401968 0.18757401
000220 db 2f 87 3e 03 8f 94 3e 74 3d 8a be 0b 0b eb 3c
       0.26403698 0.2901536 -0.2700001 0.02869179
000230 e7 9b 71 bb 99 46 a7 3e 11 13 7e bd 9d 89 0f 3e
       -0.0036866607 0.3267105 -0.062029902 0.14017339
000240 2f c8 6f 3e 78 c9 df 3c bd b5 8b 3e 74 59 93 bc
       0.23416208 0.027317747 0.27287093 -0.01798699
000250 64 d5 5e 3e 0d 0c a5 3e 03 b2 bd 3b 01 01 b4 3d
       0.2176109 0.32235757 0.005789043 0.08789254
000260 67 8d df 3d 73 35 c3 bd 2b 09 fd 3d 54 a6 8b bd
       0.10915642 -0.09531679 0.12355264 -0.06818834
000270 8e 97 5e bd f3 15 19 bc d2 3c e4 3c d2 6c 53 be
       -0.054343753 -0.009343612 0.027861033 -0.2064698
000280 80 26 77 3b 49 73 22 3e 63 b3 92 3e 3d 48 97 3e
       0.0037712157 0.1586429 0.28652486 0.295473
000290 bd f8 99 bc 6d 78 f0 bd d7 b8 82 be a2 4d 38 3d
       -0.018795365 -0.117417194 -0.25531647 0.04499591
0002a0 19 51 59 be 1d ee 30 3d 43 af e1 39 a6 07 1c be
       -0.21222343 0.043195833 0.00043045924 -0.15237293
0002b0 ea 4a c2 3b 5e e0 4a 3c f9 81 83 bd 0e e1 43 bc
       0.0059293406 0.012382595 -0.06421275 -0.011955513
0002c0 ff 40 b8 3c 08 fc 3b 3e d4 4a cf 3d 29 68 e5 bd
       0.02249193 0.18357861 0.10121694 -0.112015076
0002d0 95 05 95 bd 3f 3a 80 3e 99 f0 33 3e 32 a1 15 be
       -0.07276455 0.25044438 0.1757225 -0.14612272
0002e0 9a 6b 33 bd a0 68 ac 3e 84 87 70 3e e9 16 e9 3d
       -0.04380379 0.33673573 0.23489195 0.11381323
0002f0 0a 95 48 be ff 5c 91 be b4 89 49 3e 79 e9 63 bd
       -0.19588104 -0.28391263 0.19681436 -0.05564258
000300 07 a1 fe bd ad 44 c3 3d 10 9f 17 3e 88 b8 de bd
       -0.12433057 0.09534583 0.14806771 -0.1087504
000310 4a 69 d0 3d 72 dd 89 be b8 88 9b 3d 31 f9 56 be
       0.10176332 -0.26926762 0.075944364 -0.20993496
000320 79 f7 38 bd 36 87 71 3c 53 e7 ac 3c 1f 12 79 be
       -0.045157883 0.014741709 0.021106398 -0.24323319
000330 c5 c4 7f 3d bc 59 56 be 52 ea 08 3e 75 81 7b 3e
       0.062443513 -0.20932668 0.13370636 0.24561103
000340 4b b7 b4 bd 60 8b e9 bc 8a 24 81 be 2b 81 23 3e
       -0.08824023 -0.028508842 -0.2522319 0.15967242
000350 52 4c 80 be 71 d6 b6 bd 47 df 24 bd c9 a1 44 be
       -0.25058228 -0.0892762 -0.040251996 -0.19202341
000360 95 e1 43 3d 7f 9b 85 3a e1 e3 1c 3e c3 ea 80 3d
       0.047822554 0.0010193436 0.15321304 0.06294777
000370 02 77 96 be 90 95 1a be cb 2d 5f 3e a7 30 93 be
       -0.2938767 -0.15096116 0.21794812 -0.28748056
000380 3e 19 d9 bd b4 7f 83 be f7 d3 b1 3d c0 65 87 3e
       -0.10600518 -0.25683367 0.08683007 0.26444817
000390 d7 09 33 be e6 71 90 3e 51 b5 48 3e 23 d4 82 be
       -0.17484222 0.28211898 0.19600417 -0.25552472
0003a0 98 a1 04 3e a9 07 06 3d a6 6a b2 bd aa 24 99 3d
       0.12952268 0.03272215 -0.08711748 0.07477696
0003b0 6e df 8b 3d 6e 0e 64 3e f5 81 e0 bd 03 ab 3d be
       0.06829725 0.2227113 -0.10962287 -0.18522267
0003c0 56 29 5f be 68 9a b5 3b b2 f1 47 3e e4 4e c4 3d
       -0.21793112 0.0055420883 0.19525793 0.0958536
0003d0 8a ec 1e 3e b8 d2 93 be dc df 3f be 32 bd 0a be
       0.1551992 -0.28871703 -0.1873774 -0.13548735
0003e0 50 c3 55 be cb 46 2c 3e 0d cb 84 3e 46 e5 8b be
       -0.20875287 0.1682388 0.25936165 -0.2732336
0003f0 50 cd cf 3d 80 1a 2b be c2 5e a3 3e 4e 72 1b be
       0.10146582 -0.16709328 0.31908232 -0.15180323

linear2.weight f4 [3, 256]
000000 fd 65 f5 bc ea 0d 87 bd 94 7b c9 3c 67 41 87 bd
       -0.029955858 -0.06594451 0.02459506 -0.066042714
000010 3b 67 7e bd 03 57 c5 3c e9 33 0b 3d e0 80 63 3d
       -0.062110167 0.024089342 0.033985052 0.055542827
000020 c6 9f 39 bc c2 6e 7e bd 4e ac 0b 3d 31 6f b5 bc
       -0.011329597 -0.062117346 0.03409987 -0.022147747
000030 65 ca 7b bd 76 fa 81 3b 3b 19 b1 3c d9 93 88 bd
       -0.061472315 0.003966625 0.021618476 -0.06668825
000040 63 14 10 bd 51 e3 05 bd 2c 3a 26 b7 66 0e 90 bd
       -0.035175692 -0.03268749 -9.907915e-06 -0.07033996
000050 4a 75 c9 bc bf 36 00 bd e9 be f1 3c 1d f2 46 3c
       -0.02459206 -0.03130221 0.029509978 0.012142685
000060 68 27 f5 bc 57 ff a4 bd b0 b0 1a 3c 8d 96 34 3d
       -0.029926017 -0.08056515 0.00944154 0.04408889
000070 ee d4 b6 bc 3c 2c 63 3d 8a 0a 5f bd 40 d3 e3 3b
       -0.02231833 0.055462107 -0.05445341 0.006952673
000080 1e 8b 40 3c d6 ce 09 bc ed 83 d6 bc 24 03 04 bc
       0.011751918 -0.00841113 -0.026185954 -0.008057389
000090 82 50 2a 3d 96 dd 79 bd aa 04 11 3d 68 8f 9e 3c
       0.041580684 -0.061002336 0.03540484 0.01935549
0000a0 02 ba 67 3c ea 0d 1c 3c 33 19 51 3d 9c f5 1d bd
       0.014143469 0.009524802 0.051049422 -0.03856431
0000b0 89 d5 01 bc e1 3b 67 bd 3e 1a 4e 3c a6 7a 6c bd
       -0.007924446 -0.05645359 0.012579499 -0.057734154
0000c0 ba e9 19 3d 79 34 34 bd ec 39 7e bd 3d a0 25 3c
       0.037576415 -0.043995354 -0.062066957 0.010109005
0000d0 9e 3d 47 bc bd 0c 2d bd 19 d0 5e bd 35 d8 e5 bc
       -0.012160687 -0.042248476 -0.054397676 -0.028057197
0000e0 a3 fd fb bc f2 b2 39 3d 11 83 0f bd 19 c5 1a 3d
       -0.030760592 0.04533667 -0.035037104 0.037785623
0000f0 ab 2b 9f bd bd 95 51 bd 7b 9e 5b 3d 0f e2 f3 3c
       -0.07772001 -0.051168192 0.053617936 0.02977088
000100 ec e4 22 3d b2 7d 10 bd 13 44 99 bd 46 f7 0e bd
       0.0397691 -0.035276122 -0.07483687 -0.034903787
000110 db 0d 9c bd 6f 05 b3 bd ea 0f 27 3a a1 95 34 bd
       -0.0761983 -0.08741271 0.0006372916 -0.04408801
000120 be d4 86 3d 7e 05 1e ba a7 6b 17 3d bb a0 25 bd
       0.06583546 -0.000602804 0.0369679 -0.040436488
000130 e5 1b cb bc 0b fd 8b bd 21 12 7d bc 57 8e 38 bd
       -0.024793575 -0.068353735 -0.015446217 -0.04505762
000140 5d 1f a2 bd c0 96 48 bd e4 f2 d8 3c 58 18 11 bd
       -0.07916138 -0.04897189 0.026483007 -0.035423607
000150 4a 87 af 3d 0f e7 b6 bc 4d dd 5b bd 83 67 f3 bc
       0.08570726 -0.022326974 -0.053677846 -0.029712444
000160 05 56 9b 3c 77 0d a6 3d dd c5 af 3d 51 48 0d bd
       0.018961916 0.08108037 0.08582661 -0.034492794
000170 d1 dd 38 bd 87 60 56 3d 7e d5 17 3d c6 2a 5f bd
       -0.045133416 0.05233815 0.037068836 -0.05448415
000180 09 93 7e 3c bd 82 b8 3c d1 d0 32 bd 6c 5e d1 3a
       0.015537986 0.022523278 -0.043656174 0.0015973574
000190 3e 1c d4 bd b6 7f db bc 9d ea 0c bc 04 2a 83 ba
       -0.10356949 -0.026794296 -0.008600858 -0.0010007028
0001a0 1b 7a 9e bc 74 5d 75 bc 38 5b 83 bc 66 36 4d bd
       -0.019345334 -0.014975894 -0.016034707 -0.050100707
0001b0 0e 35 47 bd 1e 65 83 3c 66 73 8a bd 81 3e 07 bd
       -0.04863458 0.016039427 -0.06760292 -0.033018593
0001c0 7d de f3 3c 57 82 3c 3d f9 37 12 bd 47 4f 4e 3d
       0.029769177 0.04602274 -0.03569791 0.050368574
0001d0 4e ab b6 3c d3 34 2c 3c ce 03 69 bb 94 ad 78 bd
       0.022298481 0.010510641 -0.0035555246 -0.060712412
0001e0 af b4 ff bc 1e e1 f3 bc 30 3e 70 bd 20 de ea bc
       -0.031214086 -0.02977043 -0.058653057 -0.02867037
0001f0 b3 8a c9 bc 5f 44 03 3a bc ce 9a bb 03 60 b2 3c
       -0.02460227 0.00050074415 -0.0047243517 0.021774298
000200 7a e0 f3 3c aa 8a 44 bd 47 00 93 bc 63 5d 68 bb
       0.029770125 -0.047983803 -0.017944468 -0.0035456053
000210 65 e7 90 bd fd 08 8e 3c 99 f5 41 bc c4 d8 5c bd
       -0.07075385 0.01733827 -0.01183834 -0.05391766
000220 8f 66 ea bb 3a e4 92 3c fa 8b da 3c ee 39 41 3d
       -0.007153339 0.017931093 0.026678074 0.047174387
000230 95 8a 91 bd 9b f0 2a bd f8 eb b5 3b 3f 86 a7 bc
       -0.071065105 -0.041733366 0.0055518113 -0.020449756
000240 ce 20 0a 3c b8 83 84 bc 5d a3 ba bc 77 9e 1f 3d
       0.008430673 -0.01617609 -0.022782976 0.038969483
000250 dc 17 75 bd 5f 3d 9a bd 37 06 1e 3d a5 d0 e1 bc
       -0.059837207 -0.07531237 0.038580146 -0.02756531
000260 9f 19 e8 3b b4 92 9b bc 62 05 5b bb 4f 09 fd ba
       0.0070831324 -0.018990852 -0.0033419956 -0.0019305142
000270 b3 e0 15 bd 6f c5 b0 bd 02 6a 2e bd e0 20 8a bb
       -0.036591243 -0.086314075 -0.042581566 -0.004215345
000280 ea 18 3d b8 c8 b3 21 bd c9 f5 81 bd ec 35 25 3c
       -4.5084314e-05 -0.039478093 -0.06345708 0.010083657
000290 68 e7 24 bd 32 32 2f 3d a8 b1 42 bc d8 67 8b bc
       -0.04025975 0.04277248 -0.011883177 -0.01701729
0002a0 07 43 2b 3c 9c 1a 3a bc fb aa 05 3d 77 dc 17 3d
       0.010452992 -0.011358883 0.032633763 0.037075486
0002b0 33 e0 c4 3c ac 33 1c bd 1f 1f 28 bd b7 b3 25 3a
       0.024032688 -0.038135216 -0.041045304 0.000632103
0002c0 eb 51 9f bd b6 70 fa bb 18 bb a2 bd 2d 75 e2 bc
       -0.077792965 -0.0076428307 -0.079458416 -0.027643764
0002d0 e9 51 44 bd 27 51 9c bd 4a 03 55 bd 9c a6 10 bd
       -0.047929678 -0.07632666 -0.05200509 -0.03531514
0002e0 46 09 3e bd ed 9e b8 bd be 4b ec 3a 13 80 a5 bd
       -0.046395563 -0.09014688 0.0018027944 -0.08081069
0002f0 ec 6b a2 3c f0 7f 83 3c 79 c4 69 bb 3a 54 4d bd
       0.019826852 0.016052216 -0.0035670085 -0.050129153
000300 d0 8f 6a 3c f0 70 e8 3c d8 ba 9e bc 3e 27 3d bd
       0.014316514 0.028374165 -0.019376203 -0.046180002
000310 68 e9 40 bd 1f 72 b6 3c 3d f6 de bb ae b4 f5 b9
       -0.047097594 0.022271214 -0.0068042562 -0.00046864658
000320 62 b8 06 3d ed f6 26 3d 04 52 b7 bc 80 2f 99 bd
       0.032890685 0.04076283 -0.022377975 -0.07479763
000330 10 cd 11 b9 04 ab 28 bd bc dc 49 bd 2d 3c b1 bc
       -0.0001390467 -0.04117872 -0.049282774 -0.02163514
000340 d1 d8 8f bd 01 98 34 bd 77 42 1f bd ad 23 99 3b
       -0.07023776 -0.044090275 -0.038881745 0.0046734423
000350 5c a1 70 bc 88 07 60 3c 94 d6 97 3b 78 58 0a bc
       -0.014686909 0.013673671 0.004633734 -0.008443944
000360 5c 2b d7 3c 00 d3 7a bd aa ee 73 bd 60 75 94 bd
       0.026265793 -0.06123638 -0.05955378 -0.0724895
000370 14 ac e5 bb 36 f8 58 bd 00 cd f4 3c 76 65 53 bd
       -0.0070090387 -0.052971087 0.029882908 -0.051610433
000380 90 2a 63 bc 57 97 84 3d 68 0d 01 bc c7 00 cf 3c
       -0.013865128 0.06474178 -0.007876731 0.025268925
000390 50 92 79 bd ce 5e 09 bc 7b e4 50 3c b3 7e a3 3c
       -0.06093055 -0.00838442 0.0127497865 0.019957876
0003a0 31 84 9d bc 21 7d cd 3c 88 ba 11 3c 5f 75 e4 3c
       -0.019228073 0.02508408 0.00889457 0.027887998
0003b0 79 f3 1f 3d af b6 64 bd e8 2d dc 3c cc 1a c3 3c
       0.039050553 -0.055838283 0.026877359 0.023816489
0003c0 d7 30 85 3d 89 c4 66 bb 42 84 85 bd 34 85 06 bd
       0.06503456 -0.003521236 -0.06519367 -0.032841876
0003d0 89 ad a0 bb 08 2b 10 bd 94 f5 ba bb 79 f4 15 bd
       -0.0049034995 -0.035197288 -0.0057055447 -0.0366101
0003e0 b9 fb a8 3b c0 5f 59 3c 62 04 55 3b 60 ae 51 bd
       0.005156961 0.0132674575 0.0032503833 -0.051191688
0003f0 4d 0c a2 3b 32 59 5c 3d 80 be 34 bd d0 bb b9 3b
       0.004945314 0.053796 -0.044126987 0.005668141

linear2.bias f4 [3]
000000 b8 36 07 3b 9f 0b 14 bd bc d4 fd 3c
       0.002063198 -0.036143895 0.030985229
