model/model.pth (torch, 16799 bytes, 4 tensors)

linear1.weight f4 [256, 11]
-0.23443127 -0.20579125 -0.26371208 0.13325916 0.08581625 -0.22841182 -0.06530603 0.011165092
0.08746548 -0.25455162 0.041137025 0.21999983 -0.054485645 0.046798803 0.16293456 -0.03600245
0.247269 -0.24472518 0.0025587443 -0.2894699 0.038155098 0.32962757 0.07176842 -0.27005088
-0.2614375 -0.058073767 -0.013128855 -0.2571584 0.15638609 -0.09238934 0.030910047 -0.051437996
0.26671922 -0.22902372 -0.31309122 0.3321098 0.22721961 -0.28157505 -0.06320308 0.20284219
-0.1480422 -0.10439494 0.2691847 -0.17764683 0.24589074 -0.2993169 -0.02685207 -0.15964323
-0.27862713 -0.16291247 0.15282333 -0.08834408 0.29477924 0.09975738 -0.12680483 0.15329945
-0.2845362 -0.07066499 -0.20630825 0.27566096 0.0235187 -0.062027913 0.26211482 -0.1280434
0.28623265 -0.3010469 -0.21184558 0.11998602 0.02001966 0.20927423 0.2674753 -0.05252049
0.048931204 0.17732468 -0.27163193 0.2296445 -0.012127979 0.15314229 0.31858748 0.22200823
-0.20876683 -0.14535534 0.080980524 0.14460474 0.0258728 -0.18114562 -0.23476337 0.15245333
0.0602699 0.27686754 -0.08653553 0.19603503 -0.25322387 -0.29403937 -0.24730353 0.16949874
-0.2737851 -0.022012863 -0.16849765 0.06471238 0.24592654 -0.11679158 0.24188223 0.26138514
0.17844078 -0.19922295 -0.055887263 -0.291834 0.16824542 0.21971293 0.047827885 -0.25979933
-0.25185823 0.32258484 0.2938083 -0.11265165 0.047158916 0.021442736 -0.24724421 -0.07716138
-0.310143 -0.036994822 -0.21319215 -0.160105 0.11594594 -0.17972921 -0.059546348 -0.26916322
-0.09420361 -0.07024189 0.12856726 -0.11984691 -0.29312903 -0.14132017 -0.22752579 0.15329765
0.27314326 0.27574557 -0.298706 -0.10532827 -0.25254333 0.13735215 0.1525678 0.0070757656
-0.30045375 0.15784629 0.23303175 0.03670971 -0.18767771 -0.2647648 -0.21605927 -0.26743186
0.07642171 0.023236968 -0.18236251 0.12570022 -0.18036725 0.034324158 0.061683524 0.06311929
-0.2713198 -0.23423128 0.20163189 0.02493657 -0.12496248 -0.20358948 0.21004681 0.31332213
0.14705145 -0.026361492 0.06418459 0.30268097 -0.27018884 0.10754305 -0.0019600003 -0.2598608
0.22676137 0.089009225 -0.11003992 -0.009080637 0.13724262 -0.07285506 0.21101412 -0.23730867
0.2171087 -0.31673506 0.25037125 -0.18085073 0.23318103 -0.2643847 -0.14257185 0.26418504
0.30715984 0.32743573 0.0024324462 0.0010529197 -0.008958655 0.062720105 -0.1320716 0.2827765
0.12891841 0.22143549 0.16788895 -0.03352204 -0.2091562 0.19226408 -0.18051645 -0.28080496
-0.08016145 0.19762175 -0.17455363 -0.061346296 0.26075405 -0.2602549 0.0582727 0.016773507
-0.27242705 0.23013602 -0.018450338 -0.017527394 0.04941146 0.21495071 -0.2051957 0.2502424
0.16405684 0.30460432 0.18030716 -0.080285296 -0.035066064 0.066156656 -0.25798532 0.29014233
-0.104147404 0.2315463 -0.11648685 0.117301516 -0.11010625 -0.08971906 -0.24352153 0.29357156
0.00057972735 -0.20718877 0.019527698 0.013026876 0.037707284 0.08737455 0.16204518 0.28722653
0.2878745 -0.12008339 -0.26972643 -0.14009044 -0.016083285 -0.017662188 -0.109845154 0.08718328
00000000: c00e 70be f1ba 52be 4505 87be 1775 083e
00000010: 6ec0 af3d cae4 69be 2bbf 85bd caed 363c
00000020: 1a21 b33d 9754 82be 4c7f 283d a347 613e
00000030: 572c 5fbd 1ab0 3f3d 51d8 263e 4e77 13bd
00000040: 1634 7d3e 3d99 7abe 9bb0 273b 6635 94be
00000050: 8548 1c3d f2c4 a83e 52fb 923d 1c44 8abe
00000060: 23db 85be c2de 6dbd 691a 57bc 44aa 83be
00000070: ad23 203e 9f36 bdbd 1137 fd3c a6b0 52bd
00000080: 6c8f 883e 3285 6abe 7e4d a0be 4c0a aa3e
00000090: 42ac 683e 9b2a 90be 9e70 81bd ddb5 4f3e
000000a0: 6098 17be 04cd d5bd 94d2 893e 0de9 35be
000000b0: c8ca 7b3e 1140 99be dff8 dbbc 8479 23be
000000c0: 37a8 8ebe 87d2 26be b87d 1c3e beed b4bd
000000d0: 4eed 963e 994d cc3d 20d9 01be 88fa 1c3e
000000e0: bbae 91be ceb8 90bd 7842 53be 6f23 8d3e
000000f0: 4aaa c03c fb10 7ebd ea33 863e cf1d 03be
00000100: 168d 923e d222 9abe 0cee 58be 3bbb f53d
00000110: 4500 a43c fc4b 563e 86f2 883e ba1f 57bd
00000120: 166c 483d 9a94 353e 5713 8bbe ee27 6b3e
00000130: 6eb4 46bc 55d1 1c3e e61d a33e 2056 633e
00000140: f9c6 55be 08d8 14be 1ed9 a53d 4413 143e
00000150: 32f3 d33c 3d7e 39be cf65 70be ba1c 1c3e
00000160: 92dd 763d 95c1 8d3e 8a39 b1bd 68bd 483e
00000170: 8fa6 81be 548c 96be 233d 7dbe 1491 2d3e
00000180: 902d 8cbe 5254 b4bc a68a 2cbe ed87 843d
00000190: 2bd4 7b3e 6d30 efbd faaf 773e 46d4 853e
000001a0: 2eb9 363e 1a01 4cbe 0bea 64bd 446b 95be
000001b0: 8748 2c3e 6dfc 603e 2ce7 433d 6b04 85be
000001c0: 90f3 80be d729 a53e 0b6e 963e e9b5 e6bd
000001d0: b529 413d ada8 af3c 962d 7dbe c906 9ebd
000001e0: 10cb 9ebe e287 17bd 0b4f 5abe 91f2 23be
000001f0: 1175 ed3d ef0a 38be dfe6 73bd c3cf 89be
00000200: d3ed c0bd fbda 8fbd 23a7 033e 4c72 f5bd
00000210: 0215 96be 3cb6 10be 85fc 68be 0ffa 1c3e
00000220: 6fd9 8b3e 862e 8d3e feef 98be 59b6 d7bd
00000230: 5c4d 81be 0ba6 0c3e bc3a 1c3e d3db e73b
00000240: 13d5 99be 75a2 213e e09f 6e3e ec5c 163d
00000250: 962e 40be 408f 87be a43e 5dbe d4ec 88be
00000260: fc82 9c3d 745b be3c 3dbd 3abe 8fb7 003e
00000270: 31b2 38be 7d97 0c3d dda7 7c3d b044 813d
00000280: 6eea 8abe 53da 6fbe 9778 4e3e c747 cc3c
00000290: 54ec ffbd c379 50be 8316 573e c26b a03e
000002a0: a894 163e 0ef4 d7bc 3673 833d 00f9 9a3e
000002b0: 3156 8abe 883f dc3d 5973 00bb 7a0c 85be
000002c0: 2234 683e 784a b63d 9c5c e1bd f4c6 14bc
000002d0: 5489 0c3e 0935 95bd 1614 583e 0b01 73be
000002e0: be51 5e3e 192b a2be a930 803e ef30 39be
000002f0: 02c7 6e3e 6e5d 87be 5bfe 11be 4343 873e
00000300: 0e44 9d3e a8a5 a73e ad69 1f3b 1f02 8a3a
00000310: 53c7 12bc 6673 803d c73d 07be 15c8 903e
00000320: 3003 043e fcbf 623e 15eb 2b3e 684e 09bd
00000330: 0b2d 56be e0e0 443e 4ed9 38be abc5 8fbe
00000340: b02b a4bd 5b5d 4a3e 30be 32be 4146 7bbd
00000350: 8e81 853e 2140 85be 5baf 6e3d 9868 893c
00000360: 8f7b 8bbe c7a8 6b3e 2a25 97bc 9c95 8fbc
00000370: ac63 4a3d 0a1c 5c3e d21e 52be c61f 803e
00000380: 84fe 273e 19f5 9b3e 71a2 383e 9e6c a4bd
00000390: 6fa1 0fbd 247d 873d a716 84be 898d 943e
000003a0: 3c4b d5bd 791a 6d3e a890 eebd c73b f03d
000003b0: 637f e1bd a0be b7bd b55d 79be 034f 963e
000003c0: d8f8 173a 4b29 54be 8df8 9f3c ae6e 553c
000003d0: f472 1a3d 6ef1 b23d 2cef 253e 5b0f 933e
000003e0: 4964 933e 48ee f5bd 9519 8abe de73 0fbe
000003f0: 18c1 83bc 4bb0 90bc 7ff6 e0bd 268d b23d

linear1.bias f4 [256]
-0.0018297131 -0.23894347 -0.19819699 0.2883289 0.31380588 0.24323727 -0.27103356 0.18571255
0.067049675 0.011231117 -0.084319964 0.2137411 -0.09757579 0.12619863 0.07559054 0.17963079
0.10998228 0.029467968 -0.023428766 0.05157622 -0.07103244 -0.022332795 -0.21549854 -0.23453207
0.016354943 0.18227594 -0.21210684 0.14082737 -0.0019863225 0.13910411 -0.22512686 0.12699558
0.14573497 -0.21225075 -0.013412399 0.17638783 -0.1150137 0.2873405 0.21772617 0.06752744
0.25487226 0.00044796232 0.0014546608 -0.106878534 0.17853494 -0.18769917 0.14872019 -0.08649816
-0.1789158 -0.2866655 -0.16684073 -0.067223 0.21198153 0.26847342 0.20308296 -0.06929885
0.20925376 0.1328112 -0.04366385 0.17560443 0.0690878 -0.121181466 0.090561 0.28072584
-0.17485473 -0.29428643 0.025721096 -0.1893916 -0.17827824 0.22979584 0.046489093 0.09238474
-0.2073953 -0.1639482 -0.0807077 0.09039792 -0.2480205 0.12179969 0.08954173 0.22881354
0.02943576 0.060220588 -0.19554695 -0.26613182 0.25332358 0.05068323 0.22099297 -0.03936535
0.17130265 0.17590636 0.25473553 -0.2247006 -0.16313314 -0.13685454 -0.31178182 -0.23913388
-0.20775911 -0.13085733 0.13056085 0.19551243 -0.103985295 -0.12049256 -0.07995771 0.0027238075
0.045182537 -0.18756378 0.33387694 -0.16907427 -0.26124847 0.26602665 -0.18724924 -0.14670677
0.100504726 -0.0024977862 -0.21960212 0.24419545 -0.06657854 -0.23114689 0.079434656 -0.17543872
-0.10413402 -0.21220233 -0.058296897 0.098165266 0.02342223 -0.03694606 -0.25113112 -0.0037369998
-0.2091843 0.3179691 0.079392046 -0.021521263 0.072303325 0.19252132 -0.28845364 -0.21070176
0.14072186 -0.13440534 0.12986481 0.29396358 -0.009531003 -0.10432882 0.10818841 -0.27567437
0.02804597 0.19543873 -0.0066538937 0.12935773 -0.1046349 0.0140252 -0.0960621 0.20509039
0.06419766 -0.15838759 0.251346 0.2662658 0.043146845 -0.18392251 0.25938705 -0.25438705
0.17660229 0.1671745 -0.20398515 -0.20195988 0.12551026 0.043293647 0.18741547 -0.094407804
0.23407604 0.15651646 -0.0058972603 0.12394052 0.012161468 0.11716077 -0.20915337 -0.20775662
0.2206321 0.08812183 -0.30656153 0.27162567 0.24413957 0.23840886 -0.027113816 0.33767185
0.10860609 0.022529336 -0.29332176 -0.026995027 0.13899852 -0.012504531 0.19131193 -0.020855894
-0.18642502 -0.17646657 0.049554635 0.16626574 -0.14380044 0.18281823 0.1530059 -0.20722938
-0.12954071 0.09215096 -0.22669676 -0.1637627 -0.062388804 -0.012073572 0.04195563 0.03230603
0.056759052 -0.17239602 -0.269076 -0.3163805 -0.17849536 -0.05451022 0.3319121 0.11435497
0.24401407 -0.060596783 -0.1410176 0.23554878 -0.15967467 0.30999532 0.12369045 -0.17435335
-0.12252644 -0.07780182 -0.24693476 0.21323264 -0.08909703 -0.02176429 -0.18490992 -0.1995384
0.13167977 -0.15129153 -0.06342107 -0.19607987 0.0019938075 0.17977308 0.20883633 0.19786721
0.1276047 0.15153044 0.12922594 0.1289987 -0.31396478 -0.29124543 -0.19470994 0.26824656
-0.08226839 0.30247378 -0.16369085 -0.14649884 -0.1306888 -0.25578684 0.04634673 -0.105288655
00000000: fcd2 efba 99ad 74be 27f4 4abe d89f 933e
00000010: 2aab a03e 3113 793e e9c4 8abe 6e2b 3e3e
00000020: 5751 893d b802 383c f2af acbd f2de 5a3e
00000030: d1d5 c7bd 373a 013e 37cf 9a3d 22f1 373e
00000040: 643e e13d cf66 f13c afed bfbc 9641 533d
00000050: 7579 91bd 44f3 b6bc a6ab 5cbe 2d29 70be
00000060: cdfa 853c 8ba6 3a3e 8932 59be 0d35 103e
00000070: f62c 02bb 4f71 0e3e a887 66be 210b 023e
00000080: 8c3b 153e 4358 59be aebf 5bbc 039f 343e
00000090: 4e8c ebbd 4b1e 933e 9cf3 5e3e d44b 8a3d
000000a0: 9e7e 823e 7cdc ea39 51aa be3a 22e3 dabd
000000b0: ddd1 363e 3634 40be 1b4a 183e f325 b1bd
000000c0: b435 37be d2c5 92be 4cd8 2abe 36ac 89bd
000000d0: b011 593e 5975 893e fbf4 4f3e 8eec 8dbd
000000e0: 9e46 563e a9ff 073e ddd8 32bd a6d1 333e
000000f0: e87d 8d3d fd2d f8bd 0c78 b93d 4cbb 8f3e
00000100: 1e0d 33be b6ac 96be 0cb5 d23c dfef 41be
00000110: 928e 36be 9a4f 6b3e 596b 3e3d 3634 bd3d
00000120: 6f5f 54be 09e2 27be 144a a5bd 8b22 b93d
00000130: 16f9 7dbe 1e72 f93d a861 b73d 194e 6a3e
00000140: 4323 f13c dda9 763d 763d 48be 6e42 88be
00000150: a1b3 813e 3899 4f3d fb4b 623e 903d 21bd
00000160: f669 2f3e cc20 343e b26c 823e ea17 66be
00000170: 600c 27be 9923 0cbe dea1 9fbe 83df 74be
00000180: cebe 54be 77ff 05be beb1 053e 6934 483e
00000190: 3ef6 d4bd cec4 f6bd dec0 a3bd e881 323b
000001a0: 5311 393d b810 40be ebf1 aa3e ce21 2dbe
000001b0: 5cc2 85be a534 883e 44be 3fbe 4d3a 16be
000001c0: 6cd5 cd3d e6b1 23bb 61df 60be 5f0e 7a3e
000001d0: 545a 88bd c5b1 6cbe a3ae a23d 35a6 33be
000001e0: 3844 d5bd 914b 59be bac8 6ebd df0a c93d
000001f0: fadf bf3c c054 17bd 4294 80be 74e8 74bb
00000200: 6934 56be d9cc a23e 4c98 a23d 5c4d b0bc
00000210: c413 943d 4f24 453e 32b0 93be 34c2 57be
00000220: 6419 103e 8ea1 09be 48fb 043e 6582 963e
00000230: ed27 1cbc 59aa d5bd e391 dd3d 3125 8dbe
00000240: a9c0 e53c 1721 483e e808 dabb 5a76 043e
00000250: d34a d6bd f4c9 653c 35bc c4bd 3703 523e
00000260: 107a 833d 5b30 22be 6cb0 803e fe53 883e
00000270: bfba 303d 2f56 3cbe 61ce 843e 053f 82be
00000280: 3bd7 343e cb2f 2b3e 7ce1 50be 92ce 4ebe
00000290: c385 003e ae54 313d d7e9 3f3e e158 c1bd
000002a0: a1b1 6f3e da45 203e ce3d c1bb 87d4 fd3d
000002b0: e540 473c fcf1 ef3d 4d2c 56be 27be 54be
000002c0: 62ed 613e 3879 b43d a2f5 9cbe 8512 8b3e
000002d0: b9ff 793e 7421 743e cb1d debc 53e3 ac3e
000002e0: df6c de3d 718f b83c 452e 96be ad24 ddbc
000002f0: a155 0e3e cedf 4cbc 46e7 433e fbd9 aabc
00000300: 33e6 3ebe a7b3 34be cdf9 4a3d 9141 2a3e
00000310: 6c40 13be b434 3b3e 94ad 1c3e f033 54be
00000320: 52a6 04be a4b9 bc3d 3223 68be 69b1 27be
00000330: 678b 7fbd 3bd0 45bc abd9 2b3d 5453 043d
00000340: 2e7c 683d 9588 30be 54c4 89be a0fc a1be
00000350: 7dc7 36be 1c46 5fbd 62f0 a93e f032 ea3d
00000360: d3de 793e 5534 78bd eb66 10be b333 713e
00000370: c281 23be b5b7 9e3e 6b51 fd3d af89 32be
00000380: 24ef fabd 9056 9fbd 77dc 7cbe a859 5a3e
00000390: 8178 b6bd 064b b2bc 0759 3dbe cb53 4cbe
000003a0: 10d7 063e 2bec 1abe e8e2 81bd 29c9 48be
000003b0: 8aaa 023b 6f16 383e 31d9 553e b49d 4a3e
000003c0: ceaa 023e cc2a 1b3e ce53 043e 3c18 043e
000003d0: febf a0be 1f1e 95be 0b62 47be 9d57 893e
000003e0: 547c a8bd d8dd 9a3e 939e 27be cb03 16be
000003f0: 49d3 05be 7ef6 82be 12d6 3d3d 94a1 d7bd

linear2.weight f4 [3, 256]
-0.04038134 -0.054961234 0.024062447 0.012052547 -0.089681834 -0.008327201 -0.03890419 -0.06875288
0.039033335 -0.024060052 0.0105623845 -0.054521624 0.0046244 -0.012329094 -0.026345717 0.0034228372
0.0366185 -0.04997069 0.0016828594 -0.019484332 0.026047658 -0.05156806 -0.027141385 -0.05985249
-0.035177927 -0.018186172 -0.07721003 -0.014386413 0.03953096 -0.0059832027 -0.007546957 -0.004093058
-0.027474362 -0.048220463 -0.012958523 -0.015747568 0.0040058307 0.013581875 -0.07482433 0.005124428
-0.08857956 0.050850216 -0.024009317 0.034752253 0.014135178 0.023396278 0.013805747 -0.018586969
-0.03810151 -0.0003267539 -0.03834463 -0.037533905 -0.023298468 0.03677134 -0.047613207 0.020171488
0.00020647827 -0.0014225489 0.024376338 0.034618933 -0.06087209 -0.08461792 0.016939191 0.015074123
-0.027968649 0.04095019 -0.05469127 -0.06237358 0.005857259 -0.015482766 -0.032595504 0.022953385
0.042689584 0.032880288 0.008131527 0.053440094 -0.048961867 0.015316966 -0.062165625 0.025128303
-0.058144376 -0.08470932 -0.040554136 -0.006305571 0.007783053 -0.019107059 -0.064147316 -0.02778921
0.030341752 -0.05333673 -0.0657621 0.019956175 0.067216516 -0.03522472 -0.049249187 0.05697502
-0.028545894 -0.0063867806 0.026679471 0.010421681 -0.017492829 -0.016135557 -0.03716301 0.055220526
-0.0057461765 -0.028030716 -0.04512214 -0.051946 0.0132494 0.018198287 -0.004001077 0.04134885
-0.03901903 -0.04668492 -0.049497418 -0.06355218 0.04480153 -0.0704447 0.037276346 -0.017401127
0.033398557 -0.046238873 -0.002774319 -0.04594073 0.020833753 0.011058371 -0.006675544 0.02884517
0.07069515 -0.039401397 0.016333153 -0.049440406 0.038525734 -0.044479135 -0.016729943 -0.036358435
-0.07272001 -0.0806494 -0.029111655 -0.030056158 -0.056146033 -0.024403315 0.016165815 -0.049841687
-0.03751492 0.014750943 -0.018790774 0.033700228 -0.043759443 0.017235728 0.017869296 0.035266887
0.011345575 -0.034479152 -0.022347445 -0.03415888 -0.06382239 0.0131789325 -0.023897748 0.0025948037
-0.05317197 -0.06558761 -0.029689472 0.014703431 -0.017552506 -0.050396983 -0.059787367 0.04111059
0.04675068 0.017680306 0.046310924 -0.013901935 -0.017038284 -0.01832364 -0.027281305 -0.026723241
0.032758452 -0.012208405 0.009059977 -0.024648167 -0.03525555 -0.054747354 -0.07293787 -0.05649647
-0.059157208 -0.05993445 0.006595011 0.070255585 0.008756424 0.04514078 0.026902694 -0.017646534
0.040905744 0.039267145 0.009235943 -0.053528562 -0.022122214 -0.060617458 -0.012694446 -0.06836514
-0.017074417 -0.071378775 0.042703956 -0.04433901 -0.038026325 -0.03277622 0.031324226 -0.021103505
-0.036957324 -0.023939999 -0.061309263 -0.022780413 -0.013734308 0.009251026 0.03799153 -0.054979075
-0.046706814 0.0331368 -0.050108604 -0.029403469 -0.009647243 -0.03229095 0.022858255 0.009141165
-0.048578545 -0.07693311 0.009175718 -0.051299363 -0.030364428 -0.032705456 0.007286525 -0.036340784
-0.055472955 -0.07149778 0.024533056 -0.050352525 0.008116137 -0.008299743 -0.058405723 -0.03394721
-0.017080514 -0.02812798 0.00015591478 -0.031800877 -0.008376981 0.04748322 -0.022718193 -0.036289234
-0.052741926 -0.054547414 0.03774688 -0.037702117 0.011778298 -0.061406184 -0.025143255 0.00955645
00000000: e766 25bd 081f 61bd 9c1e c53c 0c78 453c
00000010: 1cab b7bd d06e 08bc 005a 1fbd 4fce 8cbd
00000020: 6be1 1f3d 9619 c5bc da0d 2d3c 1152 5fbd
00000030: 4788 973b f8ff 49bc f9d2 d7bc ae51 603b
00000040: 48fd 153d 11ae 4cbd 6493 dc3a 9b9d 9fbc
00000050: e661 d53c 0839 53bd 9c57 debc e227 75bd
00000060: bb16 10bd 2bfb 94bc 4b20 9ebd fdb4 6bbc
00000070: 37eb 213d be0e c4bb 774c f7bb 0f1f 86bb
00000080: ea11 e1bc d282 45bd fc4f 54bc 0b01 81bc
00000090: 5843 833b 8386 5e3c 803d 99bd d1ea a73b
000000a0: 3369 b5bd 5148 503d 30af c4bc 6158 0e3d
000000b0: 3c97 673c 8da9 bf3c 8031 623c b343 98bc
000000c0: 5410 1cbd 2b50 abb9 420f 1dbd 27bd 19bd
000000d0: 6edc bebc 8b9d 163d 1106 43bd ad3e a53c
000000e0: 1782 5839 d274 baba e3b0 c73c 95cc 0d3d
000000f0: 0355 79bd 294c adbd 0fc4 8a3c 74f9 763c
00000100: 821e e5bc 63bb 273d f403 60bd 707b 7fbd
00000110: 40ee bf3b 6dab 7dbc dd82 05bd bd08 bc3c
00000120: 46db 2e3d 7bad 063d 193a 053c 00e4 5a3d
00000130: 3d8c 48bd 03f4 7a3c 62a1 7ebd dfd9 cd3c
00000140: cc28 6ebd 147c adbd 181c 26bd f79e cebb
00000150: fb08 ff3b 6886 9cbc ab5f 83bd 33a6 e3bc
00000160: 448f f83c 9d77 5abd 48ae 86bd 227b a33c
00000170: d0a8 893d cc47 10bd 84b9 49bd a35e 693d
00000180: 14d9 e9bc 3348 d1bb e88e da3c b3bf 2a3c
00000190: 1f4d 8fbc b72e 84bc 3e38 18bd eb2e 623d
000001a0: 6c4a bcbb aca0 e5bc fed1 38bd 54c5 54bd
000001b0: 0314 593c 9314 953c 771b 83bb 695d 293d
000001c0: 6bd2 1fbd b038 3fbd cebd 4abd a527 82bd
000001d0: cf81 373d 5045 90bd 15af 183d cf8c 8ebc
000001e0: edcc 083d f964 3dbd 59d1 35bb 592c 3cbd
000001f0: 8cab aa3c 2b2e 353c 86be dabb b54c ec3c
00000200: 9ec8 903d 5c63 21bd 1bcd 853c 0682 4abd
00000210: 29cd 1d3d c12f 36bd 3c0d 89bc 95ec 14bd
00000220: 3bee 94bd 832b a5bd 917b eebc 5538 f6bc
00000230: 62f9 65bd 76e9 c7bc 2c6e 843c cc26 4cbd
00000240: 3fa9 19bd f0ad 713c 1cef 99bc 4009 0a3d
00000250: 1a3d 33bd f131 8d3c a162 923c 0374 103d
00000260: cae2 393c 033a 0dbd fd11 b7bc 2fea 0bbd
00000270: 50b5 82bd 73ec 573c 36c5 c3bc 950d 2a3b
00000280: daca 59bd cc52 86bd 5637 f3bc a9e6 703c
00000290: 46ca 8fbc 116d 4ebd 99e3 74bd 9463 283d
000002a0: a47d 3f3d 4ad6 903c 86b0 3d3d f1c4 63bc
000002b0: df93 8bbc 751b 96bc 0b7d dfbc b3ea dabc
000002c0: ba2d 063d c305 48bc 4c70 143c f4ea c9bc
000002d0: 2068 10bd c33e 60bd 7360 95bd d868 67bd
000002e0: d44e 72bd d37d 75bd f61a d83b 29e2 8f3d
000002f0: 1b77 0f3c 8ae5 383d 0a63 dc3c 778f 90bc
00000300: c88c 273d 96d6 203d 5a52 173c c440 5bbd
00000310: a539 b5bc 034a 78bd 5efc 4fbc 0603 8cbd
00000320: a6df 8bbc 092f 92bd 58ea 2e3d d29c 35bd
00000330: 7ec1 1bbd 5c40 06bd d54d 003d 42e1 acbc
00000340: 9060 17bd d11d c4bc 6c1f 7bbd fd9d babc
00000350: dd05 61bc 9e91 173c 029d 1b3d bd31 61bd
00000360: a54f 3fbd 74ba 073d ae3e 4dbd 8bdf f0bc
00000370: 780f 1ebc 8443 04bd 3c41 bb3c d3c4 153c
00000380: 4cfa 46bd 1b8f 9dbd c055 163c 481f 52bd
00000390: d2be f8bc 28f6 05bd cdc3 ee3b 13da 14bd
000003a0: 9c37 63bd 6e6d 92bd 8cf9 c83c 733e 4ebd
000003b0: 8cf9 043c a5fb 07bc d73a 6fbd 3b0c 0bbd
000003c0: 6fec 8bbc a66c e6bc 0e7d 2339 a341 02bd
000003d0: 9b3f 09bc c47d 423d 811b babc 05a4 14bd
000003e0: eb07 58bd 1c6d 5fbd 799c 1a3d 896d 1abd
000003f0: c3f9 403c 0d85 7bbd 3af9 cdbc a892 1c3c

linear2.bias f4 [3]
-0.078046754 0.03474694 -0.09045434
00000000: fad6 9fbd cf52 0e3d 2040 b9bd
