model/model.pth (torch, 16799 bytes, 4 tensors)

linear1.weight f4 [256, 11]
00000000: 6323 08be 6656 6cbd 70bb fdbd 545e 37be
00000010: 8f4b 93be 32bc 2e3e eb32 433e f1aa 303e
00000020: 409b 81bd 1004 333e 4ccc 153d 9535 9cbd
00000030: 9a43 99be 200b af3d 3813 7abe 8a0c 8f3e
00000040: b123 673e e0b5 0cbe 99be a83d 7ebf 51be
00000050: 669a 46be 0b07 893e 8f36 f2bd 2e1a 003d
00000060: 331e ea3c 0761 fabd 2ba5 dcbd 3748 f33d
00000070: 345c c4bc f9a5 9c3e f689 28be 2fa5 493e
00000080: 610b 5f3e fd26 47be ebda 433e 4c9e 84be
00000090: 0a2a 8d3e ba06 1dbb 5caf 22bd a491 8b3e
000000a0: 4565 81be 29d6 1c3e 2eb8 943e e9a0 02be
000000b0: c2b7 3ebe 22e1 883d b4e0 86be c91e d43d
000000c0: 9765 1abd 7445 123e 6aba aabd fbdf f83d
000000d0: 263e 1ebd eb70 35be fe32 243e e9c1 8e3e
000000e0: 74a1 7bbe 18c2 2fbe 04d6 3bbe 83c5 5cbc
000000f0: 66f7 85be 9f55 5fbe f9a8 743e 795b 383e
00000100: 9eb4 943e efcd 613d f069 f8bd edcc 233e
00000110: 08ec 923e 8903 89be a803 b43d 180c 85be
00000120: eb41 403e ec1b 273e 4b77 41be d44c e1bd
00000130: d505 c63d 63f2 33be fbb0 ca3d 305e 9a3d
00000140: a3b0 8b3e a0c0 823e 7c2b 38bd 8c34 b0bd
00000150: 3527 be3c df29 03be dd77 4b3d 27e1 763c
00000160: 878e 0c3b e52f 47be 2c44 22be fd48 0c3e
00000170: 666e 73be a5af 253c d870 7e3d 9c7f 153e
00000180: adea 1d3e 2e0f 993e c9dd ec3d 6999 553e
00000190: f0bd 99be c017 f23d 7a8d dc3c b3c7 5dbe
000001a0: ed83 4abe 50fc 9d3e 11a0 83be 6f16 c1bd
000001b0: c7de bfbd 8bd9 b93c 1456 03bc 6178 81be
000001c0: 4ab4 07bd 893c 133e ab42 cfbb d1da 213e
000001d0: d063 513e 232a 1c3e bcb6 f6bc 037f 743d
000001e0: 2637 8dbe 28c2 81be 8d78 6ebe d6dd 8ebd
000001f0: 03d7 09be bc98 113d 6ebf 9e3c df7f 153d
00000200: 229e 27be 2883 633e 498f a4bc 1e56 f0bd
00000210: d0e7 5cbe d928 95bd 926c 89bc 1a5a 99be
00000220: 2205 2b3e 915a de3c 785c bd3d 8433 1a3e
00000230: 30ec 903e ac40 953e 8751 77bd 7c25 893e
00000240: f6b5 7bbd a4f6 46be 91b3 b6bd 2f3d 8bbe
00000250: 2625 42be e879 573e 6bd8 b9bd 6631 1d3e
00000260: 5a80 043d ee0d 91bd 220c 50be 871c 6a3e
00000270: 07b5 8c3e 8bc3 a63c da58 1e3d c5f4 2bbe
00000280: aacc 0c3e 1d28 653e c22e 273e 387c 883e
00000290: b3a3 013d 11c8 913e 6a68 82be a05e 8b3e
000002a0: abad 99be d0d0 8bbd b43b 07bd 045c 6fbe
000002b0: 3c6c b83d 208f 31be 1e27 033e 8347 3abe
000002c0: 47f1 503e bcdf 9ebd e36e 11bd 4079 9e3b
000002d0: 318b 7a3e aabd 61bc 08b1 efbd 13d5 77be
000002e0: 701e ecbd 600e 27be 8bbf 273e 449e 5a3e
000002f0: ba30 2c3e ed62 b2bd 2c0a f1bc 703a 06be
00000300: b6a6 6f3e 0853 883e 4ef3 533e b34e 753d
00000310: 9bbf 7dbe 9a4b b03d a323 903e a68d a13c
00000320: b403 843e d028 6a3c c1bf b9bc 44b2 8cbe
00000330: fe7e b9bc beae debc b722 1d3e 2d1c 2d3e
00000340: f7a1 383d ca85 69be 2e41 643e cc96 94be
00000350: c81b 38bd 009b 883d 0431 453d 97b4 3c3e
00000360: c1a3 623e 7009 8d3d ec7d ae3d 1caa 18be
00000370: f3f1 903e d25f 8cbe 3b80 923e d323 9a3e
00000380: e601 3a3d 1b22 333e 8fb7 08be 0e0a c03c
00000390: be1a 4e3e 5d6f 80bd d21c 17be 223c 06be
000003a0: d4e7 113c 7e87 48be 3ab8 ddbd 2af5 853e
000003b0: db1e cc3c c154 293e 9c3f 8f3d f7ed 90be
000003c0: 1287 11be cdfd d73c 3c0d 783e 4403 cbbc
000003d0: 229e f2bc 5621 673e 69c9 dc3d 59b7 46bd
000003e0: 41d8 89be 64ae 80be f72c 293e 5117 6ebe
000003f0: e231 78bd 8c04 6c3e 218a db3d e0b8 d8bd
-0.13294749 -0.057699583 -0.123892665 -0.17907077 -0.28768584 0.17063978 0.19062392 0.17252709
-0.0632844 0.17482018 0.036571786 -0.076274075 -0.29934388 0.08547044 -0.24421394 0.27939254
0.22572209 -0.13741255 0.082394786 -0.20483205 -0.19394836 0.26763186 -0.118268125 0.031274967
0.028578853 -0.12225538 -0.10773691 0.11879008 -0.023969747 0.30595377 -0.16458878 0.19691919
0.21781684 -0.19448467 0.1912648 -0.2590202 0.27571136 -0.0023960308 -0.039718017 0.27259552
-0.25272575 0.1531607 0.29046768 -0.12756695 -0.18624786 0.06683566 -0.2634331 0.10357434
-0.03769454 0.14284307 -0.08336337 0.12152096 -0.038633488 -0.17718856 0.16035077 0.27882317
-0.24573308 -0.17163885 -0.18343359 -0.013474825 -0.26165313 -0.21810006 0.23892583 0.18003644
0.2904405 0.055128034 -0.12129581 0.15996142 0.28695703 -0.2676051 0.0878976 -0.2598579
0.18775146 0.16319245 -0.18893163 -0.11000982 0.09669081 -0.17572932 0.098970376 0.07537496
0.272832 0.25537586 -0.044963345 -0.086037725 0.023212055 -0.12808941 0.049674857 0.015068329
0.0021447258 -0.19451864 -0.15846318 0.13699718 -0.23772582 0.010112678 0.062119335 0.1459946
0.15421553 0.29894394 0.1156574 0.20859303 -0.30027723 0.11820936 0.02692293 -0.2165821
-0.19776888 0.30856562 -0.25708058 -0.09428107 -0.09368663 0.02268674 -0.008016128 -0.25287154
-0.03313092 0.14378561 -0.006325086 0.15806128 0.20448232 0.15250449 -0.030116431 0.05969144
-0.27581137 -0.25343442 -0.23288174 -0.069759056 -0.13460927 0.03554605 0.01937839 0.0364989
-0.16368917 0.22218001 -0.020087855 -0.117351755 -0.21572804 -0.07283182 -0.016775403 -0.29951555
0.16701177 0.027142795 0.09246153 0.15058714 0.28305197 0.29150903 -0.060380485 0.2678641
-0.06145283 -0.19430023 -0.08920968 -0.27195117 -0.18959484 0.21042597 -0.090744816 0.15350875
0.032348968 -0.07082735 -0.20317128 0.22862445 0.27481863 0.020356914 0.038658954 -0.16792591
0.13749948 0.22378583 0.1632643 0.2665727 0.031650256 0.2847295 -0.25470287 0.2722063
-0.3001531 -0.06826937 -0.03301592 -0.23374945 0.09005019 -0.17339754 0.12807891 -0.18191342
0.2040454 -0.07757518 -0.03550614 0.0048362315 0.2446716 -0.01377813 -0.11703688 -0.24202375
-0.11529243 -0.16314077 0.16381662 0.21349436 0.16815463 -0.08710275 -0.029423796 -0.1310823
0.23403439 0.26625848 0.20698282 0.059889507 -0.24780123 0.0860817 0.2815219 0.019720864
0.25784075 0.014291957 -0.022674443 -0.27479756 -0.022643562 -0.027182933 0.15345274 0.1690528
0.045076337 -0.22804943 0.22290489 -0.290213 -0.04494837 0.06670189 0.048142448 0.18428265
0.2213278 0.06886566 0.085201114 -0.14908642 0.28309593 -0.27416855 0.28613457 0.30105457
0.045411967 0.17493479 -0.13351272 0.023442294 0.20127389 -0.06271241 -0.14757088 -0.13108876
0.00890537 -0.19582936 -0.10826154 0.26163608 0.024917057 0.16536237 0.069945544 -0.28306553
-0.14211681 0.026366139 0.24223799 -0.02478183 -0.02961642 0.2257131 0.107806034 -0.048514698
-0.269228 -0.2513305 0.16521059 -0.23251082 -0.060594447 0.2304861 0.107197054 -0.10582137

linear1.bias f4 [256]
00000000: 3024 90be 4cee 093e 45e6 60be 69a3 4b3e
00000010: 410a 053e a919 733e c396 5fbd c320 763d
00000020: faa4 903e 9634 8b3d 363d b9bd e7e1 583e
00000030: 8180 8cbe a19c 13bc 8a77 cfbd 4953 113d
00000040: 036f c2bb a595 283e e85a 013e 1257 f83c
00000050: 585e 1ebe 84d2 98be 0814 1abe 08da 5b3d
00000060: 01db 49be 9a79 36bc 2081 75be 1f31 e1bd
00000070: 2359 3c3e 410a 8cbe e824 f7bd b068 363e
00000080: c415 90be b28a 423e 1213 313e 99c3 803e
00000090: a868 a4bc f151 b23d b6c2 523e f022 40be
000000a0: 5fa7 e93d de9b 8fbe ca7f 47be 3551 c1bd
000000b0: 3baa 9e3e 0c8b 82be 2d0e 88bd 2308 663d
000000c0: 756d 75be 6f9d 2abe 0142 ef3d 6bac 82be
000000d0: e1e1 ec3d 93d6 c63d f2a8 c4bd 770c 09be
000000e0: f663 59be 1a60 ab3b 5581 b53d c669 f7bd
000000f0: 6f4f bd3d 15f9 12bd bca6 1a3e 3c7f 4fbe
00000100: d275 253e 9d2c b63c c79a 1dbe df4a 883e
00000110: 15d7 37be 01c1 103e 5314 bebd 0bb0 b7bd
00000120: a3fd 85be a33e 883c 0d98 d5bd 1afc b63d
00000130: 82d1 943e 4f66 0f3e e2f2 683e 7f7c 303e
00000140: bf64 513e 80f4 9a3e 0ca0 2a3d 170b 94be
00000150: 45f9 1bbe 64f9 803e 1b94 08be aa86 8ebe
00000160: 3a82 813d 095a dabd 7466 0fbe 8bbf 3e3d
00000170: f85e 483e 7360 eebd 33c3 963c 8031 7cbe
00000180: 01e8 98be d94b a23d 09d2 9fbe af27 673e
00000190: b5d6 763e 5979 b13d 7876 67be eaf6 33be
000001a0: 8486 d23d 29c0 e93d a46e bb3d 1eea 913e
000001b0: 04a4 df3d 6674 543d cda4 263e 4042 373e
000001c0: 03c5 efbb 677d 0cbb 9298 88be 386b 323e
000001d0: 0a18 83bd 160d a7be 8b13 16be b700 0a3e
000001e0: 46cd 8b3e 99e9 2bbe b6d1 233e e521 923e
000001f0: 3e1a dabd df28 593a 3e47 7fbe e763 893e
00000200: b2ee 5b3e 5317 1c3e c050 273e 7f42 8ebe
00000210: dd91 37be 5429 80be 5d15 d93a bb03 44be
00000220: cfa8 b0bd 0ca6 9dbe e311 843e 7aa3 d73c
00000230: 91fd 3abc a48d 623e a949 2bbe 374e 313e
00000240: 38b9 033e cca8 4bbe 4675 c63b f6bd 683e
00000250: 3fd3 4d3e ba06 0abd 5744 953e 0b11 083e
00000260: 2b05 0ebe 55c5 7d3e 26e6 9e3e c596 5cbe
00000270: 8b3d e1bd 3af0 903e 539b 613e 8478 12be
00000280: 5dac fc3d 7545 1fbe 7e2e c53c df42 793d
00000290: ca35 743e 6162 97bc bd20 a83b 3bb7 193e
000002a0: b478 1fbe e2aa 8f3d 52dc a33d a87e 8b3e
000002b0: ac9a ebbd 18aa 813e 07cb 53bd ad1e b13d
000002c0: 74f7 933d e43f adbd 51b8 c33d b28e 933e
000002d0: 45be fdbc eded 833e 1ca7 92be 339c 97be
000002e0: ccde 8abe d31c 1ebe b1b9 703e 570d 8f3e
000002f0: 6494 743e 64f2 103e 7cba 40be b77f 82be
00000300: 3b49 1fbb 71b2 49be bdc4 89be 341b 56be
00000310: 7b10 963e 6d94 8b3e eb6f 613d 85fc d4bd
00000320: 2c74 48be 8fe1 9ebd efb3 c9bd 4be1 943e
00000330: f26a 9fbd fd2c 5c3d 67ff 153e 7479 e2bd
00000340: e7cb 84be 5ce8 c93a e4fe 9d3d ca04 433e
00000350: 20da dc3d 18a2 abbb 8b02 9b3e a956 973e
00000360: 6eb1 44be 5275 85be cfdf 23bd e7b8 963d
00000370: e11f 183e 0aa6 423e 6ca7 e43b 6ec5 dd3d
00000380: cdbf ab3d 0766 d43d a6ca 7dbe a9d5 0bbe
00000390: 45e8 383e aa37 603c 8cb5 56be 4f96 183e
000003a0: 7037 573e 0390 6cbe b371 4dbe f5ec 83bd
000003b0: c009 113e c125 d63d 140a 0f3d deec 7a3e
000003c0: 40d6 e83c 9807 523e f505 ce3d 2941 493e
000003d0: c1ce d3bd 35ff 583e b4d6 89ba 23da 29be
000003e0: 4851 d83d 492d 003e 3c40 74bd a455 b83c
000003f0: 0045 55be 9e47 d0bc dc9a 573d d2b8 d6bd
-0.2815261 0.1346981 -0.21962841 0.19886555 0.12992193 0.23740257 -0.054587137 0.060089838
0.28250867 0.06797139 -0.09044878 0.21179925 -0.2744179 -0.009009511 -0.10130222 0.035479818
-0.005933644 0.16463335 0.12632334 0.030314956 -0.15465677 -0.2984811 -0.15046704 0.053674728
-0.1971245 -0.0111373905 -0.23975039 -0.10995697 0.18393378 -0.27351573 -0.12067586 0.17813373
-0.28141606 0.1899822 0.17292431 0.2514923 -0.020069435 0.08707035 0.20582089 -0.18763328
0.11408877 -0.28048605 -0.19482341 -0.09439317 0.3098925 -0.2549671 -0.06643329 0.056160104
-0.23967536 -0.16661619 0.11682511 -0.2552217 0.115665205 0.097088955 -0.09602536 -0.13383661
-0.21229538 0.005229962 0.08862559 -0.120807216 0.092436664 -0.035882074 0.15102667 -0.2026338
0.16158226 0.02223807 -0.15391074 0.26619622 -0.17953141 0.14136125 -0.0928122 -0.089691244
-0.26170072 0.01663143 -0.10429392 0.08934803 0.29066092 0.14003871 0.22748902 0.17234991
0.20448588 0.30264664 0.04165654 -0.2891471 -0.15231808 0.2519027 -0.13337748 -0.27837116
0.06323667 -0.10661704 -0.14003927 0.04656939 0.19567478 -0.1163949 0.018403625 -0.24628258
-0.29864505 0.07924623 -0.31214932 0.22573732 0.24105342 0.08665723 -0.22603786 -0.17574659
0.10279563 0.11413605 0.091519624 0.2849893 0.109199554 0.05186882 0.16273804 0.17896366
-0.007317187 -0.002143705 -0.26678902 0.17423713 -0.064010695 -0.3262717 -0.14655893 0.13476835
0.2730505 -0.16788329 0.15997967 0.28541484 -0.106495366 0.00082839833 -0.2492952 0.26834032
0.21477774 0.15243272 0.16339397 -0.27785107 -0.17926736 -0.2503153 0.0016562153 -0.19142048
-0.08625948 -0.30790746 0.25794896 0.026323069 -0.011412994 0.22124344 -0.16727318 0.17314993
0.12863624 -0.1988861 0.0060564606 0.22728714 0.20100115 -0.03369782 0.29153702 0.13287751
-0.13869159 0.24782307 0.31034964 -0.21541889 -0.109980665 0.28308278 0.22031908 -0.14303786
0.12337563 -0.1555384 0.02407002 0.06085479 0.23848644 -0.018479528 0.005130856 0.15011303
-0.15573388 0.07015015 0.08001007 0.2724507 -0.11504111 0.25325084 -0.051707294 0.08648429
0.07224932 -0.08459452 0.0955664 0.28819805 -0.030974517 0.2576746 -0.2864312 -0.29611358
-0.27123106 -0.15440683 0.23508336 0.27939865 0.23884732 0.14154965 -0.18821138 -0.25488064
-0.0024305123 -0.19696976 -0.26907912 -0.20908815 0.2930945 0.27261677 0.055038374 -0.10399727
-0.19575566 -0.07757866 -0.09848773 0.29078135 -0.0778407 0.05375384 0.1464821 -0.110583216
-0.25936815 0.0015404331 0.07714632 0.19044796 0.107837915 -0.005237829 0.30275378 0.29558304
-0.19208309 -0.2606607 -0.040008362 0.07359486 0.14855911 0.19008651 0.006977966 0.10828672
0.083861925 0.10371023 -0.24784335 -0.13655724 0.18057354 0.013685146 -0.20967692 0.14901088
0.21017241 -0.23101811 -0.20062904 -0.0644168 0.14163876 0.1045642 0.03492172 0.2450442
0.028422475 0.2051071 0.1005973 0.19653763 -0.103421696 0.21191104 -0.0010516257 -0.16587119
0.10562378 0.12517275 -0.05963157 0.022501774 -0.20827103 -0.025424775 0.05263792 -0.104844704

linear2.weight f4 [3, 256]
00000000: 7d14 113d c523 4fbd 1cb0 02bd 1c4a acba
00000010: 9f85 c1bc 5ed6 453d 60db e03c c1db 88bd
00000020: 6ae6 95bc 5052 a2bc a718 00bd 36bc 84bc
00000030: 335c d53b 7e1c 65bd 4d61 6e3c 670f 2f3d
00000040: 5767 3cbd ea9a 06bd 6105 5abd dd79 a33c
00000050: 0dba 03bd 539d 2bbd 2aeb 49bd 733b 093d
00000060: fe8d 69bd 6392 f1bb f00e a4bb dac7 943c
00000070: a09c acbb 66a3 ff3c 7f28 65bd b42b 1abd
00000080: ac9a f4bc 27dc 70bd 9ed0 1fbd 42d4 b33c
00000090: 4da3 1bbd 9f79 99bc 03ee 3fbc fcd7 6fbd
000000a0: 5947 0b3d 7620 57bb 5cd5 383c ee9e 313d
000000b0: 1ff8 2bbd 1469 3c3c 6b6c b33c 360e 1cbc
000000c0: ba7b 933c 80a8 19bc 5f60 963c bd24 753c
000000d0: 8f4d 7b3c a43e c83c bb47 c93c 2096 983b
000000e0: 4494 fd3c c25d 893b 547b 6cbd 7a41 5dbd
000000f0: ab6d 5ebc b780 1e3d 9fc3 07bd 17fa 8abc
00000100: 5dfb 653c 30a3 723d c0f6 99bb 0a52 33bd
00000110: db76 aabc dfc7 afbc 725d 5fbc 284c 35bd
00000120: f9a4 f33c f851 393d 106c 4abc f7f2 b83c
00000130: ecea b33a f300 463d e020 80bd 977d 30bd
00000140: a68c 173b 98e1 9abc dcda 70bd db94 2e3d
00000150: 1862 35bc 912a 3bbd a76c 733c a626 183d
00000160: dde3 00bd 27f8 9fbb 9459 003d 524d 223c
00000170: 8409 c2bc a92e 623d aea5 633c ac65 643d
00000180: 38f5 9abc f59d 253d aba8 03bd 5aea 243d
00000190: c62c 30bd f22e c43c 00d6 db3a 204c 84bc
000001a0: 0a22 483d 4d80 70bc 8df8 823b dfaa 90bc
000001b0: e2eb dc3c 73d3 9abc 0882 603c cda4 003d
000001c0: 3cdd 29bd 263f 293c 5cd5 4f3d c0fa e5bc
000001d0: a726 c03c ce37 8e3c 4e1f 113d 74dd 773d
000001e0: 99dd 44bd e153 413d e81b 27bc adc5 0bbc
000001f0: e693 12bd 16cc 413c ef10 19bd 058e eabc
00000200: 8db9 893b 5f50 023d 3fdc 75bd 4538 6e3c
00000210: be75 5e3c 2050 edbc 7ad9 843c 8fa2 3bbd
00000220: 35cd 423d 574a 88bc 3bce 87bd 4d44 023d
00000230: 6f55 cd3c 13a5 4cbd 6d2b d0bc a3cf 0abd
00000240: 6aa4 2dbd fbe1 113d e503 31bc 93f4 36bd
00000250: 9496 dcbc 3ffd 2a3c dcc0 ac3c 1914 d73c
00000260: 54dd c23c 8eb9 74bd fd50 5fbc 84db 7a3d
00000270: 65de 8cbd b101 0f3c 36a8 5ab9 cf30 a83b
00000280: 7fc8 7a3d 2c9a b0bc 078a 10bd 97bc 473d
00000290: 741c 1fbd 3f43 083d 53d3 08bc bbfd 653d
000002a0: 6227 8b3c 3f8d 88bd 9db6 57bd 3d90 b63b
000002b0: c289 11bd 58fb 3f3d 58c9 833c 2d3e 3fbd
000002c0: c003 9f3c b729 803c ec77 563d 6df7 a53c
000002d0: 77f9 003b 241c 63bd babb ae3c e715 44bc
000002e0: 53c3 313d 2c21 883c 4b7f 5f3d 28c8 903d
000002f0: e855 1dbc 0c2f 013d 9d3e c83a ee20 2a3b
00000300: ad1b 213c b572 403c 007d a13b 9add 17bd
00000310: 03f2 98bb 9a81 673d 6db2 45bd 3000 123d
00000320: e6a8 4cbc 5438 afbc d952 253d acaa 0dbd
00000330: 987d 82bd 6dc1 693d 71a9 803c 3108 86bd
00000340: 9c98 063d 6ddf d1bc af07 40bd b9b2 bb3c
00000350: f0ee 45bd 4cfc b1ba adac 2abd 569b abbc
00000360: 9c91 77bd 9ca6 883c 36c1 69bd 9777 8ebd
00000370: 0cf6 fa38 8fb5 a6bc ff60 223d b67f 7dbc
00000380: 63cd 9c3c 5aff 733c 58dc 2fbd 846e e03c
00000390: 78f0 e53c 035d 63bd 9c34 0dbb c71f 3b3d
000003a0: 2ac4 4dbd bb6f 0abd 2479 36bd 5705 73bd
000003b0: 635f 21bd b94e e43c 51aa 9f3c 3858 97bc
000003c0: e07e 2d3d c909 ec3c 1241 bc3b 52f3 bf3c
000003d0: 2804 d23b 07ba 09bd a083 6fbd 584c 0abc
000003e0: 0101 b5bc fd43 b43c 54a2 4abd fb2f 1e3c
000003f0: 805b da3b a10c 4a3d c775 7ebb 8213 913c
0.03541993 -0.05057122 -0.031906232 -0.0013144645 -0.023623286 0.04830014 0.027448356 -0.0668254
-0.018298347 -0.01981464 -0.03127351 -0.016203027 0.006511235 -0.055935375 0.0145495655 0.0427393
-0.04599699 -0.03286258 -0.053227786 0.01995557 -0.032159854 -0.041898083 -0.049296536 0.03350396
-0.05702018 -0.007372187 -0.0050066635 0.018161703 -0.0052676946 0.031205844 -0.055946823 -0.037639335
-0.02985891 -0.058803704 -0.039017312 0.021951798 -0.037997533 -0.018734751 -0.011714461 -0.058555588
0.03400359 -0.0032825745 0.011281338 0.043364458 -0.041984674 0.011499662 0.021902284 -0.0095248725
0.018003333 -0.009378552 0.0183565 0.014962372 0.015338316 0.024443932 0.024570337 0.004656568
0.030954488 0.004192085 -0.057734802 -0.05401752 -0.013575952 0.03869697 -0.033145543 -0.016964955
0.01403698 0.05923766 -0.0046986043 -0.04377941 -0.020808628 -0.02145761 -0.013633119 -0.04426208
0.029741751 0.045244187 -0.012354866 0.022576792 0.0013726628 0.04834075 -0.062562704 -0.04308852
0.0023124604 -0.0189064 -0.05880247 0.04262243 -0.011070751 -0.04569489 0.014857448 0.037146233
-0.031467307 -0.004881877 0.03133543 0.00990613 -0.023686178 0.05522028 0.013894482 0.055761024
-0.018915758 0.040433843 -0.032143276 0.040262558 -0.04301145 0.023948167 0.0016772151 -0.01614958
0.048860587 -0.014679027 0.0039969147 -0.017659603 0.026967946 -0.018899655 0.013702877 0.031407166
-0.04147075 0.010329997 0.050740585 -0.028073668 0.02345593 0.017360594 0.035430245 0.06051393
-0.048062894 0.047199134 -0.010199524 -0.008531016 -0.03578558 0.011828443 -0.037369665 -0.028632173
0.0042030276 0.03181493 -0.060024496 0.014539783 0.013577877 -0.02896887 0.016216982 -0.045809325
0.047558982 -0.01663701 -0.06631132 0.031803418 0.025065152 -0.049962115 -0.025411332 -0.033889424
-0.042393126 0.035615902 -0.010804151 -0.044666838 -0.02692727 0.010436355 0.021088056 0.0262547
0.023787178 -0.05974727 -0.013630149 0.061244503 -0.06878356 0.008728431 -0.00020852764 0.0051327716
0.061226364 -0.02155789 -0.035287883 0.048763838 -0.038845494 0.033267256 -0.008351165 0.05615018
0.016986553 -0.066675656 -0.052664388 0.0055713938 -0.035531767 0.04687056 0.01608722 -0.046690155
0.019410968 0.015644891 0.05236046 0.020259583 0.0019679943 -0.05544676 0.02132975 -0.011968113
0.043399166 0.01661738 0.054564755 0.07069427 -0.009603001 0.031539008 0.0015277449 0.002595957
0.009833259 0.011746098 0.0049282312 -0.03707657 -0.004667522 0.056520082 -0.048265863 0.03564471
-0.01249144 -0.021389164 0.040362213 -0.034586594 -0.06371611 0.05706923 0.015705796 -0.06544531
0.032860383 -0.025619233 -0.046882328 0.02291237 -0.04832357 -0.0013579219 -0.041668583 -0.020948093
-0.0604416 0.016681008 -0.057069026 -0.06956404 0.00011966759 -0.020350246 0.039643284 -0.015472343
0.019140905 0.0148924235 -0.042934746 0.027396448 0.028068766 -0.055508625 -0.002154625 0.045684602
-0.050235905 -0.03379796 -0.044549122 -0.059331264 -0.03939761 0.02786957 0.019490393 -0.018474683
0.042357326 0.02881326 0.0057450617 0.023431454 0.006409187 -0.033624675 -0.058475137 -0.008441053
-0.022095205 0.022005076 -0.049471214 0.009654994 0.0066637397 0.04932845 -0.0038827525 0.017709497

linear2.bias f4 [3]
00000000: d814 5ebd eed8 3e3d 507e 333d
-0.054219097 0.0465936 0.043821633
